runs/Conv1Dmodel0.pt (torch, 100099 bytes, 52 tensors)

encoder.conv1.0.weight f4 [4, 1, 5]
000000 c2 bc d8 3d c8 9a 94 3e 8e 0c 45 3d 16 03 bf 3c
       0.10582878 0.2902434 0.048107676 0.023316901
000010 74 df b2 3c c7 08 41 bd 20 08 40 be 3c 55 98 3e
       0.021835066 -0.04712751 -0.187531 0.2975253
000020 ef d0 60 be 59 cc bd bd 52 65 3b be 8a 07 aa 3e
       -0.21954702 -0.09267492 -0.1830037 0.33208877
000030 7e 8b d9 3e 81 8b 7d 3d 7d ab ff bd 33 c1 a3 be
       0.42489237 0.06190062 -0.12483881 -0.31983337
000040 c7 9b 5d 3e 0d 7f 1d 3e 89 d6 b9 be 68 5d 14 be
       0.21641456 0.15380497 -0.3629649 -0.14488757

encoder.conv1.0.bias f4 [4]
000000 3c 5e 47 3d a3 17 a5 be 07 dc 34 3e fc 65 33 be
       0.048673853 -0.32244596 0.17662059 -0.17519373

encoder.conv1.1.weight f4 [4]
000000 c3 ac 7c 3f 20 5e 78 3f fe c7 81 3f 92 a9 7f 3f
       0.98701113 0.97018623 1.0139158 0.9986812

encoder.conv1.1.bias f4 [4]
000000 af d2 45 ba 3e 01 94 bb b8 35 45 3c 67 9f 94 3b
       -0.0007546348 -0.0045167496 0.012036733 0.004535604

encoder.conv1.1.running_mean f4 [4]
000000 6c 73 cb 3e 16 f7 ff be eb 70 0a 3f 46 47 00 bf
       0.39736497 -0.499932 0.5407855 -0.50108755

encoder.conv1.1.running_var f4 [4]
000000 b0 6f 29 3b 13 ca 30 3a 94 d0 4b 3b a2 3b 10 3b
       0.0025853924 0.00067439786 0.0031099664 0.00220082

encoder.conv2.0.weight f4 [8, 4, 5]
000000 cb 1e bc 3d 50 24 79 3d 40 e4 1d bd 4a 30 18 3e
       0.09185561 0.060825646 -0.038547754 0.14862171
000010 62 9e 2a 3e 08 ce 0a 3e df 79 16 be f8 fa b7 3c
       0.16661981 0.13555157 -0.14694928 0.022458538
000020 90 cc 3a be 40 07 27 3d 54 03 04 3d 31 a7 e4 bd
       -0.18242097 0.0407784 0.032229736 -0.11164702
000030 f2 ca e1 bc e4 66 1c be e7 6b 11 3e 4a 4d 87 bd
       -0.027562592 -0.15273625 0.14201318 -0.066065386
000040 29 61 f9 bd ef 66 b4 3d 25 ed 8c 3d 49 72 26 be
       -0.12176735 0.088086955 0.06881169 -0.16254534
000050 88 d3 1a be c7 b2 54 bd 0a d7 64 bd 97 1f e5 bd
       -0.15119755 -0.051928308 -0.05586914 -0.11187666
000060 5b 1d 91 bc 24 15 10 be 1a 0b 5b be 45 2c 4b be
       -0.017714193 -0.14070565 -0.21390954 -0.19841106
000070 e4 bf 50 be 19 05 40 be 50 8b 56 3e 9c 36 35 3e
       -0.203857 -0.18751945 0.20951581 0.17696613
000080 80 7b 39 3e 02 76 46 3e c2 7c 7c bd e1 77 3e be
       0.18113518 0.19380954 -0.061642416 -0.18600418
000090 f7 ad cd bd 00 01 03 3e ee 86 6c be ff 1c e7 bc
       -0.10042947 0.1279335 -0.23098347 -0.028212069
0000a0 56 d8 a7 3d 7a 7e d9 bd f8 16 2a 3e 98 f6 4f 3e
       0.0819556 -0.106198266 0.16610324 0.20308912
0000b0 85 0a 67 bd 3d 0a d8 3d 43 52 21 be a5 50 0e be
       -0.056406517 0.10548828 -0.15754037 -0.13897951
0000c0 e9 3d aa bd 69 59 e9 bd bd 08 27 be ef 65 f4 3d
       -0.0831259 -0.11394007 -0.16311927 0.11933505
0000d0 e7 ea 47 3e e9 99 a7 bd d1 37 57 be 21 96 13 3c
       0.19523202 -0.08183653 -0.21017386 0.0090079615
0000e0 b4 42 2d be 2f d2 af bd c3 cd 12 3e 30 1e 38 bd
       -0.16919976 -0.08585011 0.14336304 -0.044950664
0000f0 25 a9 e9 bc dc 25 e1 bd a8 4b 17 be 29 39 28 3e
       -0.028523037 -0.10993549 -0.14774954 0.16428055
000100 33 4c d6 3d 19 4e 98 bd f9 3f b7 bc 80 f7 85 be
       0.104637526 -0.07436771 -0.022369372 -0.2616539
000110 dd 2f b9 3d 0e a7 09 3e f4 20 9e 3d b7 1c 72 3d
       0.09042332 0.13442633 0.07721129 0.059109416
000120 c6 67 d1 bd d7 c1 f1 bc 63 f7 0c bd 76 94 0f 3e
       -0.10224871 -0.029511375 -0.034415614 0.14021477
000130 50 9e 10 bd 2b 57 c9 bd e5 07 c5 bd 8d 41 c8 3d
       -0.03530723 -0.09831079 -0.096206464 0.09778128
000140 ce 8c c9 bb 95 15 10 be c2 5a c4 bd 33 2c 02 be
       -0.0061508184 -0.14070733 -0.09587623 -0.12712173
000150 f2 cb 0b be df 38 57 bd df e5 78 be 5f 07 17 3d
       -0.13652018 -0.05254447 -0.24306439 0.036872264
000160 aa 7f 94 bd 99 27 b9 3d a5 fe 6f 3e 38 9a ac bd
       -0.072509125 0.09040756 0.23436983 -0.084278524
000170 c3 db 5a 3e 7b fe 1f bd 12 b3 6f 3e 52 73 ac 3d
       0.21372895 -0.03906105 0.23408154 0.08420433
000180 ea 8e 3c 3e 34 50 44 be 70 5f 6d bb 42 e9 2e 3d
       0.18413892 -0.1917122 -0.0036220215 0.04270292
000190 b6 75 4e bb f9 11 1a bd e9 38 4d bc 86 e2 03 be
       -0.0031503267 -0.037614796 -0.0125257755 -0.1287938
0001a0 b5 84 f1 bd 3d 71 0e be 45 7a d9 3c 58 7f 54 3e
       -0.1179289 -0.13910384 0.02654756 0.20751703
0001b0 99 e8 53 3e fc ee b2 3d af 4b 02 be eb 83 bc bc
       0.20694198 0.08736989 -0.12724183 -0.023012122
0001c0 15 3b d7 3c 5c 14 4b be 5d 45 6f be 89 fb 31 bd
       0.02627329 -0.19831985 -0.23366304 -0.043452773
0001d0 19 f4 32 bd 40 8d b3 bc 40 7a 47 be ee 7e 50 3d
       -0.04368982 -0.02191794 -0.19480228 0.0509023
0001e0 95 99 a0 bd 67 44 6c be 6c e3 90 3d bc 8b 50 be
       -0.078417934 -0.23072968 0.07074627 -0.20365804
0001f0 7c 82 0e bd fc ce aa 3c f1 2f 18 be 0b 2c 2d 3e
       -0.03479241 0.020850651 -0.14862038 0.16911332
000200 6a 14 67 be e2 6c c7 3d b3 fd 0d 3e 3c 20 49 be
       -0.22566381 0.097375646 0.1386631 -0.19641203
000210 3a 59 03 3e 8b ce 07 be 63 76 00 bd 9d d8 cf bc
       0.12827006 -0.13262384 -0.031362902 -0.025371844
000220 62 0e 2a be 3f 7b 25 3e 0c 35 7f bd fe 03 52 3e
       -0.16607049 0.16160296 -0.06230645 0.20509335
000230 77 fa 05 bd 5a 5f 3a be 16 a1 76 3d cd b4 0b 3e
       -0.032709565 -0.18200436 0.060212217 0.13643189
000240 5d 3e 12 be b8 e9 11 3e 32 3d 22 be d2 12 a4 bd
       -0.14281602 0.14249313 -0.15843657 -0.08011402
000250 8b de d6 bd 66 a7 c7 bd 67 05 8a bd c4 c9 26 3a
       -0.104916655 -0.097487256 -0.06739312 0.0006362463
000260 18 b0 b4 bd 80 3e c1 3c 6a b8 b6 3d b3 9f 06 3e
       -0.0882265 0.023589373 0.08921893 0.13146858
000270 82 04 27 be c1 3e 6f 3e 9f 01 73 3d 97 21 72 3e
       -0.16310313 0.23363782 0.059327718 0.23645626

encoder.conv2.0.bias f4 [8]
000000 62 7c ed bc 0d 4b 48 be 5d 66 c4 3d 10 f2 44 3e
       -0.028989974 -0.1955988 0.09589837 0.19232965
000010 d4 2f 6d 3e 31 95 6a 3e 9f d9 44 3e bc d4 45 be
       0.23162776 0.22908475 0.19223641 -0.19319433

encoder.conv2.3.weight f4 [8]
000000 3a 76 81 3f 7b 8b 79 3f d0 50 81 3f 28 bf 7a 3f
       1.0114205 0.97478455 1.0102787 0.9794793
000010 a3 92 76 3f 7a 46 7f 3f 4d 1e 7a 3f 29 6a 74 3f
       0.963175 0.99716914 0.97702485 0.9547449

encoder.conv2.3.bias f4 [8]
000000 a8 3d 21 3d 27 1e 5c 3c 7d c1 85 3c 8d f3 f6 3c
       0.03936544 0.013434923 0.016327614 0.030145431
000010 dc 37 81 3c ca e9 b2 3c db a9 ec 3c 87 0f 42 bd
       0.015773706 0.021839995 0.028889587 -0.04737809

encoder.conv2.3.running_mean f4 [8]
000000 e0 53 11 3e 3f dd b6 3d dc 55 13 3e a4 3a 00 3e
       0.14192152 0.08928918 0.14388222 0.1252237
000010 16 41 64 3e b3 4e 31 3e 0a 0a ed 3d b7 cb 48 3d
       0.22290453 0.17315178 0.115741804 0.049022403

encoder.conv2.3.running_var f4 [8]
000000 ac 84 4d 3d 08 dc 00 3d 73 89 67 3d 50 13 a7 3c
       0.050175354 0.03145984 0.056527566 0.020394951
000010 8c 5b 36 3d 8b e0 89 3d a9 27 33 3d 7a 26 ae 3c
       0.0445209 0.06732281 0.043738995 0.021258581

encoder.fc.weight f4 [16, 64]
000000 96 60 a0 3d 53 80 ac bd 97 79 0e be 70 8d e8 bd
       0.07830922 -0.084229134 -0.1391357 -0.11355102
000010 ec 88 c2 3d 80 77 12 3d 03 23 86 bd 84 07 cd 3d
       0.09498772 0.035758495 -0.06549647 0.10011199
000020 9a 60 bc bd 77 f7 d4 bc 73 26 07 bd ee c5 da bd
       -0.09198113 -0.025996907 -0.032995652 -0.10682283
000030 8e bb 8e bd 73 75 3a 3d 3f dd e6 3c eb aa 03 3c
       -0.06969367 0.045522165 0.02818167 0.0080363555
000040 48 00 61 bd ae 5a 2c 3d bd 58 da bc e9 dc 43 3d
       -0.05493191 0.042078666 -0.026653642 0.0478181
000050 96 3a 72 3d 31 ef 9d 3d 70 67 00 be f9 59 3b bc
       0.059137903 0.07711638 -0.12539458 -0.011435025
000060 25 4f 71 bd 07 1f 41 3d ed 53 a9 3d d9 c9 d9 bc
       -0.05891337 0.04714873 0.08267961 -0.026585506
000070 0d a3 74 bc d3 84 a3 3d 6f 65 3b 3d 33 f9 b0 bb
       -0.014931452 0.079843186 0.04575103 -0.0054008006
000080 ea 3a c2 3d c3 a7 83 bd ab 99 05 bb 16 f5 d9 3d
       0.09483893 -0.064284824 -0.0020385783 0.106424496
000090 b4 af 9b bc df b5 a7 bd 34 a5 e6 bd b7 37 24 3c
       -0.01900468 -0.08188986 -0.11261979 0.010023049
0000a0 97 53 6c 3d 8e 9b 11 3d 8b 5d 91 bd 83 bb 71 bd
       0.057696905 0.03554874 -0.0709792 -0.059016716
0000b0 c6 27 93 3d ff a0 d1 bc 10 44 32 bd ad eb af 3c
       0.071853206 -0.025589464 -0.04352194 0.021474684
0000c0 d5 31 bd 3c 6d 2f 2b bd 39 c7 47 bd ab aa 94 bd
       0.02309505 -0.041793276 -0.048773978 -0.07259115
0000d0 ee 06 07 3e 71 92 07 3d 62 d5 b4 bd 01 32 dd 3d
       0.13186237 0.03309864 -0.08829762 0.10800553
0000e0 1f 14 cd 3d 46 bf bb 3c 1c b5 03 3e 72 68 ba bd
       0.100136034 0.022918355 0.12862056 -0.091019526
0000f0 95 b2 e6 3d c8 5d 1a bd 12 e2 9a bd a3 97 f9 3d
       0.112645306 -0.037687093 -0.07562651 0.121871255
000100 8f b4 cf bd ac 69 99 3d 1c c5 50 bd 1b db 1c bd
       -0.10141861 0.074908584 -0.05096923 -0.038294893
000110 af 68 f1 bd 41 ac 2c bd 3c 9d bb bd 70 a6 4b bd
       -0.11787545 -0.04215646 -0.091608495 -0.049719274
000120 58 e3 83 3d d4 51 0b bc e9 06 bf 3c 03 45 15 3c
       0.06439847 -0.008503396 0.023318725 0.009110692
000130 6a 9b a4 3d 36 73 33 3d 87 c1 0b 3d 7e cd ec bd
       0.080374554 0.043811046 0.03412011 -0.11562632
000140 13 a8 b9 bd a5 48 dd bd ff 3f 05 3d df db af 3d
       -0.09065261 -0.108048715 0.032531735 0.08586859
000150 11 4b 18 3b 99 68 bd 3d c5 35 c3 3d ac 2e 80 3d
       0.0023238102 0.09248466 0.0953174 0.06258902
000160 2d f6 d5 3c 23 b1 ba bc cb 16 6f bd 61 29 bd bb
       0.026118362 -0.022789543 -0.058371346 -0.005772755
000170 28 53 d9 3d 50 3f 87 bd b9 d1 a9 bd e6 45 91 3c
       0.10611564 -0.06603873 -0.082919545 0.017733525
000180 4b 53 78 3d 46 d0 10 bc 73 84 f2 bd 03 85 01 bd
       0.06062631 -0.008838719 -0.11841669 -0.03162099
000190 62 01 0d 3d 76 7f 80 bc ab 1e ad 3c eb 53 26 bd
       0.034425147 -0.015685778 0.021132788 -0.040607374
0001a0 e7 e0 ab 3d be cf 65 bd 5e 48 82 3d cf 8a ce 3c
       0.08392506 -0.05610632 0.06361459 0.025212673
0001b0 df d6 bb 3c fc 92 89 bd f9 8e 0a bd 63 2a 54 bd
       0.022929607 -0.06717488 -0.033827756 -0.051798236
0001c0 2c 76 e4 3d 3e 8f 71 3d 02 c0 0a be 4d b1 99 3d
       0.11155352 0.058974497 -0.13549808 0.075045206
0001d0 ad 44 cb bc 24 ff f7 bc 38 ff aa 3d db 74 b4 bc
       -0.02481302 -0.030273028 0.0834946 -0.022028377
0001e0 67 9f 4f 3c 42 c2 b6 bd 0d 0a 4b 3d 57 6f af 3c
       0.012672282 -0.089237705 0.049570132 0.021415396
0001f0 d5 17 19 3c 05 f4 b2 bd 9a ca 7a 3d 6b 29 fe 3d
       0.009344061 -0.08737949 0.061228372 0.124102436
000200 a3 d0 9d bd ba 93 15 3d 3c 4d 0b 3b d0 a2 05 be
       -0.0770581 0.036517836 0.0021255752 -0.1305039
000210 8a cf 05 bd 5b 04 9b 3d 53 15 7b bc 04 eb b2 bd
       -0.032668628 0.0756919 -0.015324908 -0.08736232
000220 32 ab a1 bd b9 a4 66 3d 7e 23 8b 3d 5e 86 0e 3d
       -0.07893981 0.056309436 0.06793879 0.03479611
000230 39 f6 2e bd 55 cb 8c bc 0d 88 ad bd 86 07 21 3d
       -0.042715285 -0.0171868 -0.08473215 0.039313816
000240 b9 f0 30 3c d8 42 11 bd 82 68 b1 3d cd db 67 bd
       0.01079958 -0.035464138 0.086625114 -0.056606103
000250 0c e4 ae 3d 13 fb 07 be 13 d4 5d 3b 50 7c 48 3d
       0.0853959 -0.13279371 0.003384833 0.04894668
000260 0a 1b de bb 66 3f 15 bd 67 f8 4f 3d 27 2c be 3d
       -0.0067781257 -0.036437415 0.050774004 0.09285765
000270 cf d4 51 bd c9 c9 81 3d 49 48 2e bd a1 16 f7 bd
       -0.05122834 0.063373156 -0.042549405 -0.12064863
000280 21 9a 87 bd 19 c4 c5 bd 56 0c ce 3d 79 ac a3 bd
       -0.06621195 -0.09656543 0.10060947 -0.07991881
000290 97 5c 1a 3d 4f 9e 93 3c 5c 7f 4c 3d 8e fc 9b ba
       0.037685957 0.018019823 0.049926147 -0.0011900829
0002a0 e8 dd f6 3d 8e ce fc bc 45 19 a9 bd 47 c1 4f bd
       0.12054044 -0.030860212 -0.08256773 -0.050721433
0002b0 4d 08 85 3d 27 ba 05 bd c3 39 5e bc 31 78 d3 ba
       0.06495724 -0.03264823 -0.013563576 -0.0016133842
0002c0 c7 c7 b0 bd d5 71 c2 bc bb d0 3c 3d 1a 70 a3 bc
       -0.086318545 -0.02373592 0.0460975 -0.019950915
0002d0 e4 cb cf 3d 4b 14 35 bc f6 00 2e 3d 1a c2 1f 3d
       0.10146311 -0.0110522015 0.042481385 0.03900347
0002e0 00 83 2f 3d b1 e8 7b bd 28 0c e6 bd 30 a5 aa 3d
       0.04284954 -0.06150121 -0.11232787 0.08332288
0002f0 b2 67 0a bd e8 88 84 bd 98 3c b3 3d 43 26 87 3d
       -0.033790298 -0.06471425 0.08751792 0.06599095
000300 38 9a 00 be 86 f7 93 3d 37 02 b2 3d e3 ff 17 bd
       -0.1255883 0.07224946 0.08691829 -0.037109267
000310 4a a7 ea 3c 95 0e fc bd b8 29 3b 3a 87 3f ec ba
       0.028644223 -0.12307469 0.00071397005 -0.0018024304
000320 f0 5b f7 bd 81 1c 2e bd 4d 8a 5a 3c 71 0e 15 3d
       -0.120780826 -0.042507652 0.013338638 0.036390726
000330 9f 01 18 3e 1d 6b 69 bd 31 6d de 3d 0d 97 66 3d
       0.14844368 -0.056986917 0.1086067 0.056296397
000340 41 61 8f bd 07 60 9b 3d 7c 1b 8f bd 3a 1e 9d bd
       -0.070009716 0.07586675 -0.06987664 -0.07671781
000350 e0 40 f9 3d 69 1d c3 3d fc c0 17 3d 25 5e c2 3c
       0.12170577 0.09527094 0.03704928 0.023726532
000360 38 c5 ad bc d7 c7 01 3c 73 a4 98 bd 63 ba e9 3c
       -0.021212205 0.007921181 -0.07453241 0.028531259
000370 2b b8 22 bd 4d fe 1a bd ad ba b9 3b bd 22 ba bd
       -0.039726418 -0.037840176 0.0056680054 -0.09088657
000380 17 1d 70 3b fd 59 5d bb 13 6e 61 3d 33 44 ae 3d
       0.0036638433 -0.003377556 0.055036616 0.08509102
000390 77 90 db bb 36 f3 a6 3a 06 0d 74 bd d7 2e 42 bd
       -0.006700571 0.0012737277 -0.059582733 -0.04740795
0003a0 9c a7 aa 3d 78 70 41 3c aa 29 af bd d6 25 e2 3c
       0.0833275 0.0118066 -0.08552869 0.027605932
0003b0 83 97 dd bd ea 05 29 3a c1 2f 28 bd eb 05 05 3d
       -0.10819914 0.00064477196 -0.041061167 0.032476347
0003c0 2b 2c 68 bc 8b a9 f2 bd b8 24 b6 3d 98 8b ad bd
       -0.014170687 -0.11848744 0.08893722 -0.08473891
0003d0 63 cb cf bb db 87 d4 bd dd 85 98 3d 49 20 94 bd
       -0.0063413843 -0.10377475 0.074474074 -0.072327204
0003e0 67 3a c2 3d cc 90 08 3d fe 89 c1 bd 7f 33 87 bd
       0.094837956 0.033341214 -0.09450148 -0.06601619
0003f0 65 03 91 3b 2f 44 16 3d da 5f 97 3d 04 98 a2 bc
       0.0044254535 0.03668612 0.07391329 -0.019847877

encoder.fc.bias f4 [16]
000000 ea 33 82 3d 88 50 b4 bd 8c 7d f2 bd 22 37 01 bc
       0.06357558 -0.088044226 -0.118403524 -0.00788668
000010 fe cd ab 3d cf 45 a1 bd f6 16 c1 bd fc ba 93 bd
       0.08388899 -0.07874643 -0.094282076 -0.07213399
000020 bc 9a 07 3d 9a ab 18 be db a6 a2 bd 27 3e 7a 3d
       0.03310655 -0.14909211 -0.079419814 0.06109443
000030 73 2e 8f 3c 33 85 7e 3d 11 63 d4 bb b0 96 af 3d
       0.017478203 0.062138747 -0.006481536 0.08573663

decoder.tr_conv1.weight f4 [1, 8, 5]
000000 0d dd a8 3b bb 3a a1 3d 49 39 44 bd a4 90 ce 3d
       0.0051533044 0.0787253 -0.047906194 0.10086182
000010 98 b1 c4 3d b3 83 ec bd a2 4c a6 bd 67 6c ab bd
       0.09604186 -0.11548557 -0.08120085 -0.083702855
000020 9f 60 8c 3d 52 34 a5 3d 75 f6 2e bd 83 d4 fc 3d
       0.068543665 0.0806662 -0.04271551 0.12345221
000030 34 51 7c 39 71 cd c2 3d 83 fb d6 3b 8e 90 f9 bd
       0.00024062843 0.09511841 0.0065607443 -0.12185775
000040 0d 5e 94 bd 3a a3 6e 3c e3 25 b5 bd 75 53 87 3d
       -0.07244501 0.014565283 -0.08845117 0.06607715
000050 e1 1f 04 be 75 16 b4 bd fe 0a 0e 3e e5 40 8b bd
       -0.12902786 -0.08793346 0.1387138 -0.06799487
000060 48 35 31 3d a2 f0 89 3d 61 35 f1 3c 3f c6 c9 bc
       0.043263704 0.0673535 0.029444398 -0.024630664
000070 46 53 ca 3d 47 d3 df bd 77 03 b4 3a f5 a0 aa bc
       0.098791644 -0.1092897 0.0013733943 -0.020828703
000080 cc 95 51 3d e3 5c 8b bc 57 3c df 3d 26 9b 08 be
       0.051168248 -0.017012065 0.10900181 -0.13340434
000090 c0 7b c3 bd 16 b8 d5 bd 0d 27 5f 3d 5e d3 f7 bc
       -0.09545088 -0.10435502 0.0544806 -0.030252155

decoder.tr_conv1.bias f4 [8]
000000 bc 9b 0a be 96 23 3a 3d c7 fd bd 3d 26 d0 5a bd
       -0.1353597 0.045444094 0.0927692 -0.053421162
000010 a7 ff 13 be 45 1b c0 bd 6d 6a 85 bd 2d bb 0c 3e
       -0.14452992 -0.09380201 -0.0651444 0.13743277

decoder.tr_conv2.weight f4 [8, 4, 10]
000000 6d ec a3 3d 84 84 f5 bd 11 78 e6 bc 95 1e 6e bc
       0.08004079 -0.11988166 -0.028133424 -0.0145336585
000010 3b a4 f3 bd 9f 9e 29 3d 0d a4 08 be 0f 66 05 3e
       -0.11896559 0.04141104 -0.1334383 0.13027214
000020 a0 db 38 bd c2 43 df 3d d1 e5 f4 3d fe 9a 2f 3e
       -0.045131326 0.10901596 0.119578965 0.17148969
000030 8e 47 bb 3d 6c 22 76 3d a2 20 b8 bd fc d8 ca bd
       0.09144507 0.06009142 -0.08990599 -0.09904668
000040 8b a4 3f 3d 6a 32 65 bb 54 6b 3c 3d 57 22 8c 3b
       0.04678778 -0.0034972676 0.046000794 0.0042765546
000050 c5 ca 1f be 92 2b 51 bd 55 7e 09 be 32 09 9d bd
       -0.15604694 -0.051066943 -0.13427098 -0.076677695
000060 46 11 94 bc e0 95 4a 3d 2d 84 94 3d 57 fa 29 be
       -0.018074643 0.04945934 0.07251773 -0.16599403
000070 39 e8 8b 3d f3 03 2f be ae 17 48 3d 5c 74 80 3c
       0.06831402 -0.1709135 0.048850708 0.015680484
000080 f7 f2 ef bd fb 8b 8d bc e1 fa db bd 02 cd 5f 3b
       -0.11716264 -0.017278662 -0.10741211 0.0034149294
000090 e6 2f 26 3d 2e d5 cf bb cb 40 9b 3d e7 69 04 3d
       0.040573023 -0.0063425517 0.07580718 0.03232756
0000a0 de fc 31 3d 43 6c 1c 3d d0 58 51 bd be be 2b ba
       0.043454044 0.038189184 -0.05111009 -0.0006551555
0000b0 bf af 31 3d be 4e 09 3d cd 5a 36 3e fe d1 f6 bd
       0.043380495 0.03352236 0.17808075 -0.120517716
0000c0 55 b9 ac 3d 41 05 fc bc 50 e5 aa bd e9 0b cc bd
       0.08433787 -0.030764224 -0.08344519 -0.09963209
0000d0 cc 7e 0e bd 4f 68 30 bd 27 82 32 bd 7b ac 5a 3b
       -0.03478889 -0.043068226 -0.043581154 0.0033366967
0000e0 0e f8 07 be 59 d8 ea bd 54 b0 7d 3d 06 35 0d be
       -0.13278219 -0.11467046 0.061935738 -0.13789758
0000f0 d5 44 e7 bd 52 a9 d0 3d c5 c9 ce b8 f3 7c 71 3d
       -0.112924255 0.10188545 -9.860428e-05 0.05895705
000100 3c 5c 14 3e f1 65 dc bd 39 b2 74 3b 82 20 6d bd
       0.1448831 -0.10761631 0.0037337674 -0.05789233
000110 f1 7c f7 3d ff ca 21 3e 09 17 61 bd 53 d5 68 bc
       0.120843776 0.15800093 -0.05495361 -0.014211017
000120 2e 45 e1 bd 26 d7 ec bd 3b ac 40 3d 91 da d7 bd
       -0.10999523 -0.11564474 0.04703925 -0.10539735
000130 19 ef 2f be 44 f7 6b bd c6 02 49 3d 63 17 19 3e
       -0.17181052 -0.057608858 0.04907491 0.14950328
000140 24 d2 ee bd 1a 3b 8f bd 4e bb 24 3e 93 cc eb 3d
       -0.11661175 -0.069936946 0.16087076 0.11513629
000150 9f 25 fb bc fb 86 e2 bd b8 d9 cb 3d d6 56 04 3e
       -0.030657588 -0.11060902 0.09953636 0.1292375
000160 89 46 90 3d f7 09 b8 bd fb 0e 1a be df 2f c0 3d
       0.070447035 -0.08986276 -0.15044777 0.09384131
000170 29 d2 bc 3d 2e 27 c4 3d 9f d9 c7 3d 1d 23 ad 3d
       0.09219772 0.095777854 0.09758305 0.08453963
000180 d0 84 fc bd 4e 53 b1 bc 1c 41 32 be 55 42 a8 bd
       -0.123300195 -0.021646168 -0.1740765 -0.08215777
000190 87 6f 01 3e f0 6a a2 3d d4 5f 18 3e e1 9d 97 bd
       0.126402 0.07930553 0.14880306 -0.0740316
0001a0 26 c6 85 bd fc 87 aa 3c e1 be 1c 3e db 5d 28 3e
       -0.065319344 0.020816796 0.1530719 0.16442053
0001b0 e5 1f a8 bd 25 8e 84 3d 39 73 07 bd 85 4e 51 3d
       -0.082092084 0.064724244 -0.03306887 0.051100273
0001c0 20 09 31 ba d0 a7 be 3d 94 37 2a be 56 3a b2 bd
       -0.0006753374 0.093093514 -0.16622764 -0.08702533
0001d0 09 a5 26 be 9c b3 04 3d 8b 5b ef bd 1f 64 8a bd
       -0.16273893 0.03239785 -0.11687382 -0.06757378
0001e0 e4 d2 79 3d a3 ea 08 be 1e 39 00 be 8b 64 97 bd
       0.060992137 -0.13370757 -0.12521788 -0.07392224
0001f0 bb 09 1f be 7b 9b 8c 3d 49 b4 2b be 44 b9 03 be
       -0.15531056 0.06865593 -0.16767992 -0.12863642
000200 75 04 b4 3b dd e6 52 bd 36 13 96 3c cf 1b d1 bd
       0.0054936954 -0.0514897 0.018319707 -0.10210382
000210 2f 8b ad bd e0 2a 9d bd 09 e7 1c 3e 6a 82 08 3e
       -0.08473813 -0.076741934 0.15322508 0.13330999
000220 07 52 2b 3e 49 08 20 bc 73 72 57 bd 12 9f 97 bd
       0.1673051 -0.0097676 -0.05259938 -0.07403387
000230 c5 e1 0a be 2a 00 fa bd e6 b1 80 bc b0 a6 a5 3d
       -0.13562687 -0.122070625 -0.015709829 0.08088434
000240 b3 bd 5e 3d be 9c 0d be 64 80 7a bd 65 6b 91 3d
       0.05438013 -0.13829324 -0.0611576 0.07100562
000250 ae 43 92 3d fb 47 d7 bd cf 18 82 3d c7 12 ff 3c
       0.07141815 -0.10511776 0.06352388 0.031136883
000260 05 1d 23 3e a2 8c ee 3d 30 4c 17 3d 69 bb df 3d
       0.15929039 0.11647917 0.036937892 0.109244175
000270 34 06 7b 3d 02 ed 17 3e 78 08 85 bd a1 8c 49 3c
       0.061285213 0.14836505 -0.06495756 0.012301595
000280 9e 76 40 3d e1 2d e8 bd 7a fe 90 bc 0d c5 cd bd
       0.046988122 -0.11336876 -0.017699469 -0.1004735
000290 28 dc 04 3e ce 1a 17 be 68 ac b4 bd 7e 72 ce bd
       0.12974608 -0.14756319 -0.088219464 -0.100804314
0002a0 24 d1 10 be 84 b8 cd bd f2 c4 1a 3e eb 49 69 3d
       -0.14142281 -0.10044959 0.15114191 0.05695526
0002b0 cb 1e 2b 3e 9c b9 58 3d 09 aa 1e 3e 21 7b b1 3c
       0.16710965 0.052911386 0.15494551 0.021665158
0002c0 24 ec 02 be 1b 03 0f 3e f1 f2 26 bd 20 39 36 3e
       -0.12785393 0.13966028 -0.04075903 0.17795229
0002d0 63 25 68 3d 45 bd cd 3d 20 7b fd 3c a1 1e a9 bd
       0.05667628 0.10045866 0.0309425 -0.08257795
0002e0 04 f2 eb 3d 77 a4 c9 3d 3d cf ff bd 8b 85 cb 3d
       0.1152077 0.09845822 -0.124906994 0.09937581
0002f0 32 86 6b bd 25 23 87 bd c0 e7 0b 3e 84 1a e6 bd
       -0.057501025 -0.065985 0.13662624 -0.11235526
000300 fb 31 8f bd 26 12 c2 3d 19 f5 da bd 66 c2 16 3e
       -0.06991955 0.09476118 -0.1069128 0.14722595
000310 48 aa 82 bd 57 9f 7b 3c c9 06 3d bd e7 83 c1 bd
       -0.06380135 0.015357814 -0.04614905 -0.094489865
000320 ee 34 01 3e a6 97 22 be 71 8d 33 be 13 81 3a bc
       0.12617847 -0.15878162 -0.17534424 -0.011383313
000330 6f 3e be bd f9 13 c9 bd 8c f2 a3 3c 67 92 e1 3c
       -0.09289252 -0.098182626 0.020013116 0.02753563
000340 2f 64 eb bd 1f 91 03 be dc 46 28 ba 3e 2f 25 3d
       -0.11493718 -0.12848328 -0.000641925 0.040328257
000350 6a aa e2 3d 04 51 8c 3d b5 b2 17 3d d6 56 d1 bc
       0.1106766 0.0685139 0.037035663 -0.025554102
000360 ab 29 c7 bd 7b 4a 55 bd f7 76 19 3e bf 7f d5 bd
       -0.097247444 -0.052072983 0.14986788 -0.10424756
000370 be c1 2e bd 38 6f 07 bd 99 2f 83 3d 89 89 25 be
       -0.042665236 -0.03306505 0.06405563 -0.16165747
000380 7a 64 a3 3d 2f ee 12 be e6 8c e1 3d 9e 6d 90 bc
       0.07978149 -0.14348672 0.11013202 -0.017630395
000390 8d 18 a6 3c 6b d9 d4 3d 1d 54 29 3e 0f 4a 9c 3d
       0.020275379 0.10393032 0.16535993 0.07631313
0003a0 cf 62 8b 3d ed cb 12 3e 24 3f 99 3d 2b ef e0 3d
       0.068059556 0.14335604 0.07482746 0.10983118
0003b0 e0 d5 a8 3d 92 cc 99 bd 8b 43 c1 bd fb d4 6a 3d
       0.082439184 -0.07509722 -0.09436711 0.05733202
0003c0 db a9 f4 3b 98 71 30 be be 55 e2 bd 4e c9 70 bd
       0.0074665374 -0.17230833 -0.1105151 -0.05878573
0003d0 79 41 d9 bd f1 95 0e be 41 40 bb bd e7 82 fa 3d
       -0.10608191 -0.13924386 -0.09143115 0.12231999
0003e0 fb 99 82 bd 3e 80 09 be a3 2b cc bd e4 4a 19 3e
       -0.06377026 -0.13427827 -0.099692605 0.14969975
0003f0 85 42 06 3b ae ab 5d 3d f4 e1 51 bd 91 6a ec bd
       0.0020486426 0.054118805 -0.051240876 -0.115437634

decoder.tr_conv2.bias f4 [4]
000000 60 28 f4 3d ee 3d 8a bd 89 39 1e 3e ee ab e5 bc
       0.119217634 -0.067500934 0.15451635 -0.028036084

decoder.output_layer.weight f4 [46, 116]
000000 db 16 ad 3d 78 9d a7 3c e7 63 70 bd 06 bb ca 3d
       0.08451625 0.02046083 -0.058689024 0.09898953
000010 f3 c4 2e 3d 39 21 cf bc 8a 75 f4 bc 96 29 ee bc
       0.042668294 -0.025284396 -0.029841203 -0.029072564
000020 57 95 7d 3d 8a cb 33 bd de 44 9a bc 36 50 b7 3b
       0.06191 -0.04389528 -0.018831667 0.0055942787
000030 89 c4 ba b8 d0 e7 00 3d d1 cb 6c bd 06 f3 c3 3d
       -8.905779e-05 0.031471074 -0.057811562 0.095678374
000040 8e 73 93 3b 1b cb 12 bc e0 25 02 bd 2a 90 9a 3c
       0.004499859 -0.008959557 -0.0317744 0.01886757
000050 5c d1 17 3d 1d fe 91 bd f7 81 24 bd 2e 95 83 3d
       0.037064895 -0.071285464 -0.040163007 0.06424938
000060 b3 44 af 3d 0a 79 5d bc 14 4c 47 bd 2c 2e c1 3b
       0.08558025 -0.0135176275 -0.048656538 0.0058953967
000070 1e 6d e7 bc 75 5a ae bc b0 f6 d5 bd 89 cf 65 3a
       -0.028250273 -0.021283368 -0.104474425 0.0008766582
000080 44 d4 c8 bd 43 52 84 bd 33 e6 6d bd 9d 66 24 3d
       -0.098061115 -0.06461003 -0.058080863 0.040136922
000090 5a 6c 11 bc 01 31 9b 3c 90 76 bf bd 9d 1e bb bd
       -0.008875931 0.018944265 -0.09348786 -0.091366984
0000a0 73 88 13 bd 65 07 99 bc 77 45 9c 3d 1b 82 15 bd
       -0.0360188 -0.018680284 0.07630437 -0.03650103
0000b0 09 c9 88 bd 95 22 d1 bd db 71 05 bd 76 a6 39 bd
       -0.066789694 -0.10211674 -0.032579284 -0.045324765
0000c0 45 46 77 3d bc 76 d9 3a 2b 6b 4d bd f4 bd 0a 3d
       0.06036975 0.0016591172 -0.05015103 0.03387256
0000d0 8e 6f 9c bc 08 26 e1 bd f1 fe 5d bd cc e5 16 bb
       -0.019096162 -0.10993582 -0.05419821 -0.0023025153
0000e0 6a 2c b9 bd ae 32 ed bc 9c bb 2a bd ca 6d fd bc
       -0.090416744 -0.02895483 -0.041682824 -0.03093614
0000f0 2b 66 6d bd ee 75 6e 3d 60 9d b3 3d 01 5b c8 3d
       -0.057958763 0.058217935 0.08770251 0.097829826
000100 20 c2 5c 3b 62 89 1f 3c fa b0 b4 bc ae dd 51 3d
       0.0033685043 0.009737344 -0.022057045 0.0512368
000110 2b 53 7e 3d 42 44 23 3d d0 68 68 bd 68 d7 bd 3d
       0.062091034 0.039860018 -0.056740582 0.09269601
000120 dd 55 a1 3d 91 6a 1c bd 0a f2 a9 bb 1a b6 a4 3d
       0.07877705 -0.038187567 -0.005186324 0.080425456
000130 b7 2c 2e bc e0 49 33 3d 1c 96 61 3c 4b 23 86 bc
       -0.010630778 0.043771625 0.013768699 -0.01637425
000140 44 ee e4 ba 3a 28 15 3d 25 d8 00 3d cd 86 3b 3d
       -0.0017466028 0.036415316 0.03145613 0.045782853
000150 31 ea dc bc 90 ea 48 bd 4c 0e 63 3d fc f7 1e 3b
       -0.02696714 -0.04905182 0.055433556 0.0024256697
000160 49 a9 1b 3c f3 6f 85 3b 17 ba 0c bd 64 91 af bb
       0.00950081 0.0040721833 -0.034357157 -0.005357908
000170 1f c9 b4 bc 08 d4 38 3d 84 2b 3d bb ed 00 6b 3d
       -0.022068558 0.045124084 -0.0028865049 0.05737393
000180 9e 9a 49 bd fe ba 24 bd a1 0e 83 bc 5d 1b 26 3d
       -0.04921972 -0.040217392 -0.015998187 0.04055344
000190 12 3a aa 3d b0 df b0 bd e0 f5 8b bd 24 9a 9e 3d
       0.08311857 -0.08636415 -0.06834006 0.07744244
0001a0 39 58 94 bd a1 2b 06 bc 95 24 cb bd 5f 22 69 3d
       -0.0724339 -0.008189113 -0.09919087 0.056917544
0001b0 e3 e4 65 bd 7f 63 95 bd d3 97 b5 bd 7f 28 a9 bd
       -0.056126487 -0.07294368 -0.08866849 -0.08259677
0001c0 ba 96 b0 bd bf 63 4e bd dd f4 ca bb 91 86 96 3c
       -0.08622499 -0.050388094 -0.0061937408 0.018374713
0001d0 6f ff ae 3d d5 e1 aa 3d d7 19 2f bd ea 5d a8 3d
       0.08544814 0.08343855 -0.042749252 0.08221038
0001e0 2a 37 b8 bc dc bb 54 3d fc 57 b9 3d 71 75 ac 3c
       -0.022487242 0.05193697 0.09049985 0.021052094
0001f0 fb 5d 88 3d 71 bb a0 3c 78 a3 c7 3c 91 04 8a 3d
       0.0665855 0.019620629 0.02436994 0.06739152
000200 38 60 99 3c f0 2b a6 3d c4 f8 5e 3d d6 1c a1 3c
       0.018722638 0.08113849 0.05443646 0.01966707
000210 8f a6 7d 3b af 00 88 bc 62 34 96 3d f3 09 75 bd
       0.0038704013 -0.016601888 0.0733421 -0.05982394
000220 16 10 e3 3c 88 2a 98 bc fb 3a 85 3d 30 23 41 3d
       0.027717631 -0.018574968 0.0650539 0.047152698
000230 da de 25 3d f1 ab 2e 3c 72 24 39 3d 14 ab a3 3d
       0.04049573 0.010661111 0.045200773 0.07991615
000240 c8 ed 04 bd c2 4d 9c bd 8d 2a d3 bd 18 a1 33 bd
       -0.03245333 -0.076320186 -0.1031085 -0.043854803
000250 6f 54 63 bd 94 a1 59 3b 2a 6c 20 3d 74 85 11 3c
       -0.055500444 0.003320788 0.039165653 0.008881915
000260 a2 e8 60 3c 08 d1 94 bd 99 f3 14 3b 46 48 2f bc
       0.013727339 -0.07266432 0.0022728203 -0.010698384
000270 da fa 7c bd de 5c 20 3d 32 05 2c 3d a4 00 6e bc
       -0.06176267 0.039151065 0.041997142 -0.01452652
000280 2f e4 dd bc a2 67 bb b8 47 59 9c bd f1 50 40 3d
       -0.027086345 -8.936158e-05 -0.07634216 0.04695219
000290 f4 ee 5b bd dc f8 32 3d 72 02 94 3d cb 84 1c bd
       -0.05369468 0.043694362 0.07227029 -0.03821258
0002a0 60 f0 41 3c 3a fe 1a bc 88 de ec 3c 19 aa 5c 3d
       0.011837095 -0.009460026 0.028914705 0.053873155
0002b0 af 0d 7d 3d 22 04 41 bd a2 d2 c6 3d 8c c4 78 3d
       0.061780628 -0.047123082 0.09708144 0.060734317
0002c0 c7 a9 0d bb 5b de aa 3d 8a a3 29 bd 22 09 e3 3d
       -0.0021616088 0.08343192 -0.04141573 0.11085726
0002d0 36 a1 b3 bc 1a 76 55 3d 49 34 9b bd c1 93 61 bb
       -0.021927457 0.052114584 -0.07578332 -0.0034420344
0002e0 25 a7 e0 3b 0e f2 99 bc 3f b6 c2 3c e1 6a f0 3c
       0.0068558627 -0.018792178 0.023768542 0.029347839
0002f0 37 8b 9a bc df c5 c2 3d ad 6f ad 3d 97 c4 c2 3d
       -0.018865211 0.09510397 0.08468566 0.09510153
000300 bb 12 b4 3d 3a 22 99 bd 36 42 56 3b d4 c8 fa 3c
       0.08792635 -0.07477231 0.0032693273 0.03061334
000310 cc e0 03 3c a3 f8 a9 3d 68 f4 4b 3d 14 81 14 3d
       0.008049201 0.08299377 0.04979363 0.03625591
000320 97 8b e9 ba 19 5c 6f bd 96 42 b1 3d 57 42 2b 3a
       -0.001781809 -0.05843744 0.086552784 0.0006533018
000330 36 b8 8d 3d 51 2e 3e bc 47 fe 7e 3d ac 98 19 3d
       0.06919901 -0.011607722 0.062254217 0.037499115
000340 02 48 c7 bd 65 ae 37 3d 73 fe 84 bc 39 dd f2 3b
       -0.09730531 0.04484405 -0.016234612 0.0074116257
000350 7a 49 43 bd 2e 26 4c 3d a2 24 9a bd 1f 74 a6 bd
       -0.047677495 0.0498411 -0.075265184 -0.08127617
000360 e7 d6 70 bc 4d 57 15 3d 1d 87 84 3c 5d 83 89 bc
       -0.014699674 0.03646021 0.016177708 -0.016786272
000370 81 f0 52 3d 52 5d 9a bc 78 a0 a2 3d 68 33 a0 bc
       0.051498894 -0.018843327 0.07940763 -0.019555762
000380 85 af 32 3c 3f 92 a2 bd 52 3e 76 3d e3 54 95 bc
       0.010906105 -0.079380505 0.060118027 -0.018228954
000390 86 1c 72 3d 59 ea ea 3c d6 cd 1b 3c df e4 c5 3d
       0.059109233 0.028676199 0.009509524 0.09662794
0003a0 df 00 61 bd 35 c4 62 3c c2 7d 91 3d 06 07 ac 3d
       -0.05493247 0.013840725 0.071040645 0.08399777
0003b0 7f ed c7 bc a7 d0 f6 3c ac f8 3d bd 45 ad 89 bc
       -0.02440524 0.03012879 -0.04637973 -0.016806254
0003c0 96 2c c2 3c 79 04 65 3d d2 cd 7e 3c 63 20 40 3d
       0.0237029 0.05591247 0.015552001 0.046905886
0003d0 12 a0 74 bd f1 f1 65 bd cf 25 04 3d a1 08 33 bd
       -0.059722967 -0.056138936 0.03226262 -0.0437094
0003e0 c5 69 58 3d 45 cd b1 3c 01 79 b6 3d cd a4 cc bc
       0.052835245 0.021704325 0.089097984 -0.024980927
0003f0 61 91 cb 3d bd a0 ac bc bb 9a bd 3d c8 25 8e bd
       0.09939838 -0.02107274 0.09258028 -0.069408

decoder.output_layer.bias f4 [46]
000000 1e 96 8d 3d f3 29 8b 3c 68 3a b1 3c c3 35 11 3d
       0.06913398 0.016987776 0.021634296 0.03545166
000010 a8 ac 32 bd 11 d8 3f 3d 83 33 4f bd 5e 21 14 bd
       -0.04362169 0.046836916 -0.050586235 -0.036164634
000020 ba 7f db bc b3 43 5c 3d b8 e6 5b bc 37 79 79 bd
       -0.026794303 0.0537755 -0.013421707 -0.060906615
000030 e4 aa 83 bd db 1a 45 bd ae ca dd 39 79 16 c5 3d
       -0.06429079 -0.048121314 0.00042303413 0.09623427
000040 ec 42 c7 bc 6a e9 aa 3c 05 fb c0 3d a6 02 02 bd
       -0.024323903 0.020863254 0.09422878 -0.031740807
000050 88 6f aa 3d f4 c9 0b bc 2f c4 9a 3d cd bf 9f 3d
       0.08322054 -0.008532036 0.0755695 0.07800255
000060 72 1a b2 bc b3 d1 c3 3d b7 fb 56 3d 66 e3 52 bd
       -0.021741126 0.09561481 0.052486148 -0.051486395
000070 94 d2 7e 3d 66 58 9e 3d 54 53 d3 bc 72 b2 16 3d
       0.06221254 0.077317044 -0.02579657 0.036791272
000080 b5 5c 86 3d 44 4d 44 3d ff be 7a 3d b0 41 dd 3d
       0.06560651 0.04792525 0.061217304 0.108035445
000090 1d 23 6c 3d 64 f3 93 bd 72 ff 11 bd 9c 94 e2 3c
       0.057650674 -0.072241575 -0.035644002 0.027658753
0000a0 aa 45 7f bd d1 e5 6f 3d 8b 99 99 3d 9a 61 74 3d
       -0.062322296 0.05856878 0.07499989 0.059663393
0000b0 78 7d 4c 3d 9b 71 99 bd
       0.049924344 -0.07492372

exp_avg f4 [4, 1, 5]
000000 5b 0d b8 38 e6 5f a9 37 7a f4 95 b8 ff 60 5b b9
       8.776291e-05 2.0191026e-05 -7.150411e-05 -0.00020921601
000010 c5 f9 9a b9 9a d1 7a 3a 15 b4 6b 3a 6d 83 84 3a
       -0.00029559262 0.0009567976 0.0008991373 0.0010109969
000020 98 c7 b5 39 5e 0f cc 38 74 81 d8 b8 40 86 0e b8
       0.0003467172 9.7303404e-05 -0.00010323795 -3.398047e-05
000030 57 70 92 b8 c5 2a 4b b9 03 ab 8c b9 01 f1 24 39
       -6.9827474e-05 -0.00019375522 -0.00026830295 0.0001573004
000040 ae c1 7b 39 c0 af 82 39 6e a9 6a 38 d9 c0 0c 39
       0.00024009377 0.00024926476 5.594774e-05 0.00013423282

exp_avg_sq f4 [4, 1, 5]
000000 af ce af 34 02 aa d1 32 79 2b 35 35 47 4b b4 35
       3.2746672e-07 2.4408113e-08 6.7491015e-07 1.3432954e-06
000010 0c 6d 2e 36 52 54 b9 37 c0 8b a7 37 2f f0 e3 37
       2.5991494e-06 2.2092983e-05 1.9973028e-05 2.7172353e-05
000020 d8 41 24 37 37 f2 1e 37 ba ef 46 36 30 3e 16 35
       9.790492e-06 9.473929e-06 2.9643838e-06 5.596985e-07
000030 22 76 c0 33 ee 0c c8 34 21 c3 81 35 05 1e 82 35
       8.962185e-08 3.726231e-07 9.668039e-07 9.694492e-07
000040 66 4e a5 35 f0 38 8a 35 ca 28 8c 34 3e 77 db 34
       1.2316275e-06 1.0298372e-06 2.610671e-07 4.087869e-07

exp_avg f4 [4]
000000 da 2d 19 b0 80 cd 3b ad 2e 12 a7 af 62 15 55 b0
       -5.5726235e-10 -1.06753495e-11 -3.039004e-10 -7.7519335e-10

exp_avg_sq f4 [4]
000000 da 30 23 25 ad 00 8b 26 9d b1 21 25 05 ec 9c 24
       1.4154548e-16 9.645246e-16 1.4024702e-16 6.805405e-17

exp_avg f4 [4]
000000 b6 1f 05 39 89 b0 32 39 37 57 0e b9 74 ea a0 38
       0.00012695682 0.00017041167 -0.00013574665 7.673065e-05

exp_avg_sq f4 [4]
000000 2f 1f 1c 36 d2 04 84 35 53 4c 5d 36 cc 22 2f 35
       2.3263963e-06 9.836169e-07 3.2975993e-06 6.5243216e-07

exp_avg f4 [4]
000000 e3 7e 94 b8 5a 66 d0 b6 f4 97 c8 b8 15 15 33 39
       -7.0808244e-05 -6.2107983e-06 -9.565047e-05 0.00017078624

exp_avg_sq f4 [4]
000000 b1 f1 e0 35 4f 51 ed 34 0d 5b de 35 c5 37 05 35
       1.6759642e-06 4.420385e-07 1.6566788e-06 4.9627516e-07

exp_avg f4 [8, 4, 5]
000000 5c 81 9b b8 49 c8 1c b9 f4 06 81 b9 a7 5c 19 b9
       -7.415071e-05 -0.00014951931 -0.00024609978 -0.00014625733
000010 7e c8 aa b9 63 14 22 38 1c dd 67 b6 8d 02 86 38
       -0.00032574305 3.8642796e-05 -3.4550385e-06 6.390093e-05
000020 3a 1d 52 38 ae 8f 01 39 e5 5a e5 b8 58 10 b7 b9
       5.009512e-05 0.00012355924 -0.00010936501 -0.00034916657
000030 fe 07 21 b9 8f 3c 0a ba 3c 81 cd b9 b7 cb 46 b7
       -0.00015357134 -0.0005273306 -0.00039196934 -1.1849151e-05
000040 1f 01 11 b8 96 8b 2c 38 3f 58 cc 38 f0 2b bf 38
       -3.4571738e-05 4.1137995e-05 9.743915e-05 9.115774e-05
000050 ec 97 b4 b9 29 04 b9 b9 5e 4c bb b9 dc 89 ba b9
       -0.00034445466 -0.0003528905 -0.00035724317 -0.00035579398
000060 56 0d c5 b9 c9 13 90 36 94 19 8d b3 21 b7 2a 36
       -0.00037584704 4.2938377e-06 -6.570477e-08 2.543857e-06
000070 76 84 26 b7 37 0b af b7 a6 98 8b b9 91 94 61 b9
       -9.925212e-06 -2.0866848e-05 -0.00026625878 -0.00021513017
000080 e5 9a 81 b9 6e 82 99 b9 91 65 c6 b9 3a a8 78 b6
       -0.00024720203 -0.00029279612 -0.00037841176 -3.70528e-06
000090 3d c7 92 33 01 27 2a 36 d3 14 01 b7 78 f5 93 b7
       6.834896e-08 2.5354677e-06 -7.693848e-06 -1.763807e-05
0000a0 de fc a7 b9 89 f4 ae b9 df a3 8d b9 a9 2b af b9
       -0.00032041123 -0.0003337006 -0.0002701571 -0.0003341113
0000b0 b4 8d f0 b9 64 a1 64 b7 78 2c 0b 35 66 a7 15 b8
       -0.00045881944 -1.3627436e-05 5.1846246e-07 -3.568027e-05
0000c0 32 7f ac b6 00 6a b7 37 fd 8e aa b9 1e e9 45 b9
       -5.140807e-06 2.186466e-05 -0.0003253146 -0.00018874227
0000d0 45 73 84 b9 a3 7d af b9 5a e5 db b9 2a ab cb b7
       -0.00025262884 -0.00033472208 -0.00041941815 -2.427919e-05
0000e0 5f 52 ce b6 2e c4 dc b7 e0 81 bd 35 a0 f1 c3 37
       -6.1488677e-06 -2.6317397e-05 1.4119396e-06 2.3358327e-05
0000f0 c8 2c cb 38 3b ac af 38 c3 d4 9d 38 ed e8 84 39
       9.6881355e-05 8.376731e-05 7.525973e-05 0.00025350545
000100 50 a4 5c 39 90 a9 db 38 ec 1c 04 39 ec 0f f5 b8
       0.00021042046 0.00010474317 0.00012599275 -0.00011685476
000110 e9 af 64 38 3e a9 bc 37 8b 47 86 38 20 fc 8d 38
       5.4523265e-05 2.2490156e-05 6.402944e-05 6.770366e-05
000120 a0 53 14 39 37 c8 87 39 c3 b1 7f 38 f1 3e 4d 39
       0.00014145533 0.00025898378 6.096229e-05 0.00019573771
000130 43 2c 17 b8 53 63 39 b9 30 c7 d5 b8 80 9b fd b4
       -3.6042427e-05 -0.00017679976 -0.00010193733 -4.7238063e-07
000140 40 61 91 b9 fd 56 86 b9 40 bd 65 b9 d7 f3 7f b9
       -0.00027729012 -0.00025623283 -0.00021909643 -0.00024409532
000150 97 0a 9a b9 1c 61 50 39 14 23 8c 38 e1 a0 00 39
       -0.0002938106 0.00019872602 6.682254e-05 0.00012266963
000160 f4 4e 43 39 b5 46 68 39 03 f8 84 b9 c8 68 84 b9
       0.00018626062 0.00022151585 -0.00025361785 -0.0002525507
000170 7f a0 4b b9 30 c4 7c b9 65 bb 82 b9 8c a9 4e 39
       -0.00019419378 -0.00024105678 -0.00024935152 0.00019708852
000180 43 a7 39 39 d2 4d 96 38 70 bf 34 39 83 42 73 39
       0.00017705285 7.1670525e-05 0.00017237454 0.00023199063
000190 18 2b d0 b8 a5 24 0e b7 63 24 22 38 c2 be dc 37
       -9.92624e-05 -8.4723915e-06 3.8657698e-05 2.6314872e-05
0001a0 f6 3f b3 34 0c de 94 b9 84 d6 4c b9 5b d4 0f b9
       3.3387886e-07 -0.00028394198 -0.0001953487 -0.00013716651
0001b0 d2 fb 22 b9 ee 5d dc b8 ef 65 c9 b8 3d 30 67 37
       -0.00015543334 -0.00010507913 -9.6034135e-05 1.3779904e-05
0001c0 2a 2d c2 38 1e f2 08 b7 16 a5 8b 36 23 8c 4e b9
       9.259053e-05 -8.162604e-06 4.1617413e-06 -0.00019697896
0001d0 6d c2 85 b9 56 c5 4e b9 82 98 b8 b9 74 db 32 b9
       -0.00025512595 -0.00019719204 -0.00035208842 -0.00017057155
0001e0 eb 03 d2 38 db 5b 22 38 4e 90 02 38 1e e0 91 37
       0.0001001431 3.8709357e-05 3.112881e-05 1.738971e-05
0001f0 4c 6b d7 36 fc a8 90 b9 74 63 d7 b9 a7 e0 72 b9
       6.4199903e-06 -0.00027591723 -0.00041082094 -0.00023162608
000200 5b 59 e5 b9 8d e6 9d b9 86 30 d7 38 23 a5 09 38
       -0.0004374486 -0.00030117147 0.00010261037 3.281714e-05
000210 0c 6c 54 38 cb d1 f6 36 b9 36 bd 37 e0 a4 a8 b9
       5.0645365e-05 7.3557944e-06 2.2556038e-05 -0.00032166298
000220 76 a4 dc b9 70 17 b1 b9 41 82 d9 b9 ef 06 b4 b9
       -0.00042084203 -0.00033777533 -0.00041486512 -0.0003433744
000230 6a a3 ad 37 46 8b 2f 37 f6 79 93 b8 e2 94 2c b9
       2.0699303e-05 1.046324e-05 -7.032223e-05 -0.00016458661
000240 ae 16 4d b9 31 d0 87 b9 c1 74 aa b9 ec 82 24 b9
       -0.00019558772 -0.0002590432 -0.00032511915 -0.00015689031
000250 4f 0f b1 b9 8b d6 a2 b9 ae 30 99 37 12 89 7d 36
       -0.00033771477 -0.00031058895 1.826169e-05 3.7779723e-06
000260 bd ca 06 b9 c6 2d 3c b9 40 9a 5c b9 27 06 68 b9
       -0.00012854762 -0.00017946129 -0.00021038298 -0.00022127536
000270 43 fa a3 b9 d4 e6 23 b9 75 9e 87 b9 be 09 8c b9
       -0.00031276242 -0.00015630882 -0.00025867266 -0.0002671014

exp_avg_sq f4 [8, 4, 5]
000000 08 6e a6 36 ef 24 91 36 8b 40 8c 36 07 5d 68 36
       4.959995e-06 4.3256364e-06 4.179839e-06 3.4624843e-06
000010 90 e9 8c 36 2d 58 a6 36 04 bf 11 35 6b 48 3d 36
       4.1995154e-06 4.9574505e-06 5.4294674e-07 2.8205347e-06
000020 b6 ea 24 35 19 ed 12 36 64 6c 86 36 76 3f aa 36
       6.143631e-07 2.1893704e-06 4.0061295e-06 5.0737826e-06
000030 f4 ef 93 36 dc 39 d6 36 45 88 1d 37 fd 98 22 36
       4.4088756e-06 6.3844327e-06 9.389657e-06 2.4228932e-06
000040 1e 68 69 35 9b ad dd 35 e6 f9 b7 35 72 4f ad 35
       8.6950774e-07 1.6516309e-06 1.3707293e-06 1.2912626e-06
000050 78 89 41 36 11 90 71 36 50 24 95 36 69 0b ac 36
       2.8839258e-06 3.5995656e-06 4.4447734e-06 5.1273278e-06
000060 8c 9b aa 36 11 28 3f 31 99 6c 2a 30 34 91 15 31
       5.084503e-06 2.7816933e-09 6.1999966e-10 2.1764892e-09
000070 11 e3 29 32 41 d3 b2 32 18 05 36 36 fa b9 86 36
       9.888724e-09 2.0817994e-08 2.7123078e-06 4.0151617e-06
000080 70 01 9d 36 21 9d b0 36 e2 9b 7e 36 6c 61 38 30
       4.679132e-06 5.263501e-06 3.7939685e-06 6.7077255e-10
000090 60 fa 97 2e ad 2c 37 31 27 71 e2 30 15 37 5a 32
       6.9111605e-11 2.66554e-09 1.6475824e-09 1.2701794e-08
0000a0 3d 06 66 36 a6 29 14 36 58 4f 70 35 5e 04 a5 35
       3.4276302e-06 2.2077961e-06 8.952243e-07 1.2294729e-06
0000b0 c6 a3 dc 35 07 af c1 33 35 b5 6b 32 0b ad 14 33
       1.6438942e-06 9.0191e-08 1.3720002e-08 3.4616317e-08
0000c0 65 7d 18 34 5f 13 ef 33 08 bc 5f 36 25 a5 b7 35
       1.4201721e-07 1.1132828e-07 3.3339038e-06 1.3682626e-06
0000d0 73 35 2f 35 7a ff c5 35 75 c4 b5 35 25 cc 83 33
       6.527036e-07 1.4751997e-06 1.3542727e-06 6.1372965e-08
0000e0 db f4 7e 31 5d 07 4c 32 81 f9 70 33 e1 e7 86 33
       3.710105e-09 1.1876037e-08 5.6106277e-08 6.28204e-08
0000f0 06 ff 0e 37 68 2f b9 36 86 f0 83 36 78 ef e4 36
       8.523237e-06 5.5189485e-06 3.932105e-06 6.8228073e-06
000100 39 7b 20 37 9a ab 1e 37 35 11 41 37 9d 3f 25 37
       9.565433e-06 9.457488e-06 1.1507703e-05 9.8495775e-06
000110 83 b6 35 37 2a 21 48 37 f8 10 06 37 28 39 9d 36
       1.0830935e-05 1.1928651e-05 7.990973e-06 4.6856185e-06
000120 a3 c8 79 36 ec f9 08 37 f9 0e 24 37 2a 40 49 37
       3.7220677e-06 8.164421e-06 9.778648e-06 1.1995473e-05
000130 d2 f5 38 37 85 01 2a 37 57 11 24 37 1e 3b 2a 37
       1.1024489e-05 1.0133143e-05 9.779199e-06 1.0146554e-05
000140 1e ed 21 36 8c 5c 11 36 66 e5 31 36 25 43 08 36
       2.412889e-06 2.1660553e-06 2.6508583e-06 2.0304662e-06
000150 e5 d7 ba 35 8e f4 2c 36 e0 67 0b 36 fa 8a 17 36
       1.3920913e-06 2.5772347e-06 2.0773077e-06 2.2581648e-06
000160 8f 72 02 36 83 04 e8 35 73 d2 3b 36 37 51 0c 36
       1.9438191e-06 1.728666e-06 2.798767e-06 2.09089e-06
000170 e1 3c 72 36 06 4a a2 35 d5 9d aa 35 4e c6 2c 36
       3.6096246e-06 1.2091484e-06 1.2711922e-06 2.5745426e-06
000180 02 f8 41 36 0a 58 21 36 7c de 17 36 99 67 03 36
       2.89036e-06 2.4042115e-06 2.2630256e-06 1.9580823e-06
000190 8c 86 cc 35 4f 6a 1b 34 57 a2 ee 33 0e fa d2 32
       1.5238343e-06 1.4474175e-07 1.1112268e-07 2.456093e-08
0001a0 5c ca a3 31 d6 0e d2 35 ba b5 d0 35 a2 59 9b 35
       4.76693e-09 1.5650537e-06 1.5550097e-06 1.1574487e-06
0001b0 a7 b2 2a 35 f1 47 40 35 7c b5 23 35 ac 51 2c 34
       6.358991e-07 7.163026e-07 6.0986326e-07 1.604846e-07
0001c0 d0 a3 e7 33 68 f1 4d 32 f6 d2 4d 32 c5 f1 f1 35
       1.0786573e-07 1.198746e-08 1.19805375e-08 1.8026263e-06
0001d0 77 44 a9 35 04 93 6c 35 1b 98 93 35 22 e7 1b 35
       1.2611407e-06 8.8130787e-07 1.0996622e-06 5.807834e-07
0001e0 48 42 52 35 93 01 5a 34 66 e3 fc 33 cb 2a a2 33
       7.832755e-07 2.0303405e-07 1.1776028e-07 7.551497e-08
0001f0 f4 a4 ab 33 59 6c e2 35 43 f5 c3 35 2b 46 3c 36
       7.992813e-08 1.6869845e-06 1.4600013e-06 2.8055026e-06
000200 e1 fd bb 35 6a ac b0 35 a4 1c 5a 35 c9 ba df 33
       1.4006474e-06 1.3163201e-06 8.1253006e-07 1.0418223e-07
000210 a4 be 5e 34 1b af ae 33 94 e4 f5 33 92 54 bd 35
       2.0744716e-07 8.134358e-08 1.145028e-07 1.410621e-06
000220 12 b1 e3 35 01 ad e1 35 e6 b1 c5 35 65 c6 b0 35
       1.6964352e-06 1.6814157e-06 1.4729419e-06 1.3170762e-06
000230 1b 81 d8 33 72 6a 2a 33 c1 ed 28 34 73 60 da 34
       1.0081768e-07 3.967802e-08 1.5732714e-07 4.067584e-07
000240 d2 0b a8 34 4c 67 bf 36 e6 2c 8c 36 88 4e 0e 37
       3.130104e-07 5.704269e-06 4.177552e-06 8.482144e-06
000250 22 2d 8f 36 f0 53 e4 36 e0 89 1c 34 50 34 a1 33
       4.2669863e-06 6.804701e-06 1.4578791e-07 7.506662e-08
000260 6d ce aa 34 6e 33 05 35 e6 3a 37 35 ef 99 a0 36
       3.1815162e-07 4.96212e-07 6.825852e-07 4.786292e-06
000270 fe b2 94 36 1e 25 ce 36 a0 fb a4 36 92 3b d9 36
       4.431581e-06 6.1435994e-06 4.916874e-06 6.474039e-06

exp_avg f4 [8]
000000 8d 3a fc b9 0d e6 0e b9 64 49 81 b9 58 dd 14 ba
       -0.0004810881 -0.00013627876 -0.00024659478 -0.0005678735
000010 0c b5 0c b9 56 a7 8a b9 24 c9 a2 b9 89 0e 99 b8
       -0.00013418886 -0.00026446086 -0.0003104891 -7.298316e-05

exp_avg_sq f4 [8]
000000 7c 39 4f 37 b6 3b 47 36 12 a8 72 35 64 f6 07 37
       1.2351546e-05 2.9688067e-06 9.03966e-07 8.103994e-06
000010 d3 c1 3e 35 1b 64 e5 34 2c 45 c9 35 57 25 cf 35
       7.1062567e-07 4.272741e-07 1.4995799e-06 1.5433569e-06

exp_avg f4 [8]
000000 b9 a3 63 39 01 bd ec b8 81 e1 12 b8 f3 84 7d 39
       0.00021709398 -0.00011288562 -3.501913e-05 0.00024177488
000010 b2 0d f5 38 b9 a0 33 b9 53 de 14 39 e5 c6 89 39
       0.00011685061 -0.00017130644 0.00014197202 0.00026278864

exp_avg_sq f4 [8]
000000 05 7c 22 36 95 52 3b 34 c8 a1 ec 34 9e 61 bc 34
       2.421207e-06 1.7445775e-07 4.4076137e-07 3.5088755e-07
000010 70 d0 1a 34 a1 6f 94 33 93 2b e1 34 ff 6d c7 34
       1.4418197e-07 6.912092e-08 4.194122e-07 3.714667e-07

exp_avg f4 [8]
000000 81 3b 6a b9 d0 33 1e b8 b4 c4 4b b8 56 96 07 b9
       -0.00022338146 -3.771839e-05 -4.8582166e-05 -0.00012930608
000010 5f 50 b9 b8 ac 17 fd 37 51 d9 27 b8 90 f3 2b 39
       -8.836458e-05 3.0170973e-05 -4.0018294e-05 0.00016398565

exp_avg_sq f4 [8]
000000 f5 ef 2b 37 d3 9c c4 35 24 4b 86 34 d5 4d 48 37
       1.0248264e-05 1.464878e-06 2.5014117e-07 1.1939051e-05
000010 d5 41 88 35 55 88 9d 35 7d b3 c3 36 2f 44 b4 35
       1.0151949e-06 1.1737089e-06 5.832348e-06 1.3430889e-06
